proj1/best_model.pth (torch, 320034 bytes, 21 tensors)

fc1.weight f4 [128, 13]
0	0x80072851	-6.57311e-40
1	0x800759e8	-6.75101e-40
2	0x8005e00d	-5.39552e-40
3	0x801246e0	-1.678464e-39
4	0x0010fc68	1.559914e-39
5	0x80155001	-1.957245e-39
6	0x000d0e49	1.198986e-39
7	0x00061256	5.5759e-40
8	0x8007642f	-6.78788e-40
9	0x0004d01c	4.41998e-40
10	0x000407bb	3.70115e-40
11	0x00090937	8.29825e-40
12	0x80074190	-6.66368e-40
13	0x3d122300	0.03567791
14	0x3da21be9	0.0791548
15	0x3c3aaa33	0.011393118
16	0xbda6bcdd	-0.081414916
17	0xbe22a0ee	-0.15881702
18	0x3d100709	0.03516296
19	0x3dc2ee47	0.09518104
20	0x3d7d824d	0.061891843
21	0x3d91c109	0.07116897
22	0x3cb38a18	0.021916434
23	0x3cdc983f	0.026928065
24	0xbcf4c40d	-0.02987864
25	0x3adcc397	0.0016842958
26	0x800c485d	-1.127985e-39
27	0x00019484	1.45113e-40
28	0x00244835	3.331981e-39
29	0x0002b645	2.49057e-40
30	0x0024e0b4	3.386686e-39
31	0x800798fb	-6.97728e-40
32	0x80084372	-7.58879e-40
33	0x000792dc	6.95532e-40
34	0x00085b18	7.67362e-40
35	0x80000ec5	-5.298e-42
36	0x8012e191	-1.733957e-39
37	0x000e5ea8	1.319653e-39
38	0x8028f56b	-3.761459e-39
39	0x0016481c	2.046249e-39
40	0x1a8c5e9a	5.805548e-23
41	0xa06df9f4	-2.0157383e-19
42	0x21346b64	6.11285e-19
43	0x1c539768	7.000973e-22
44	0x869a9e24	-5.816073e-35
45	0x05012985	6.073177e-36
46	0x1ae44e67	9.4425256e-23
47	0x801840e3	-2.227329e-39
48	0x00004f8e	2.8539e-41
49	0x8024dc91	-3.385202e-39
50	0x001e2625	2.768749e-39
51	0x24b76939	7.954185e-17
52	0x000a2236	9.30628e-40
53	0x00048c4c	4.17671e-40
54	0x80040601	-3.69496e-40
55	0x80000709	-2.524e-42
56	0x00075192	6.7211e-40
57	0x8009f688	-9.14958e-40
58	0x8009d699	-9.03503e-40
59	0x8007c1dd	-7.12394e-40
60	0x80094413	-8.5094e-40
61	0x800fb148	-1.441129e-39
62	0x801be52c	-2.56177e-39
63	0x000d34c7	1.212794e-39
64	0x80251796	-3.406374e-39
65	0x3d44b7b7	0.048026767
66	0x3d5739d6	0.05254539
67	0x3c41778c	0.011808287
68	0xbdfcde3c	-0.12347075
69	0xbcbb8222	-0.0228892
70	0xbe94d13a	-0.29065877
71	0xbc85c7c3	-0.016330605
72	0xbdeb131c	-0.11478254
73	0x3e0c0778	0.13674724
74	0xbc873bcb	-0.016508004
75	0x3d445ca6	0.04793992
76	0x3d2e01b0	0.042482078
77	0xbcc4732b	-0.023980698
78	0xbc8aebe2	-0.01695818
79	0x3e1a3337	0.150586
80	0x3d4e2ea2	0.05033744
81	0xbddc07ea	-0.10743697
82	0x3dee2ef4	0.11630049
83	0xbc98827d	-0.01861691
84	0x3c49c2d1	0.012314514
85	0x3d9502c0	0.07275915
86	0xbd9aefb4	-0.07565251
87	0xbd54182b	-0.05178086
88	0xbde8bde2	-0.11364342
89	0xbdf9337e	-0.121680245
90	0xbd6052e7	-0.05476656
91	0x8002b92a	-2.50095e-40
92	0x0001eaef	1.76114e-40
93	0x00083988	7.55322e-40
94	0x0008e9cb	8.18553e-40
95	0x00082a04	7.49756e-40
96	0x0006d1a3	6.26216e-40
97	0x8001590f	-1.23784e-40
98	0x0009e978	9.10272e-40
99	0x0001642f	1.27775e-40
100	0x8000849d	-4.7573e-41
101	0x80016823	-1.29193e-40
102	0x0000be3a	6.824e-41
103	0x8007e3bc	-7.24544e-40
104	0x00071159	6.49072e-40
105	0x000148a1	1.1789e-40
106	0x8016486c	-2.046361e-39
107	0x800e4670	-1.310965e-39
108	0x8005b55e	-5.2424e-40
109	0x8000662a	-3.665e-41
110	0x80033db8	-2.97647e-40
111	0x80080144	-7.35138e-40
112	0x00110164	1.561702e-39
113	0x0004d24f	4.42786e-40
114	0x800e3935	-1.306219e-39
115	0x8010b053	-1.532621e-39
116	0x800d72b9	-1.235016e-39
117	0x3db1a698	0.08674353
118	0x3ddcca22	0.10780741
119	0xbb3e9e9e	-0.0029086242
120	0xbce00a16	-0.02734856
121	0x3cf22b52	0.029561672
122	0xbeaa5b45	-0.33272758
123	0xbd12eb30	-0.035868824
124	0x3cf2597d	0.029583687
125	0xbc840b07	-0.01611854
126	0x3cbcb73f	0.023036597
127	0xbc4b9188	-0.012424834
128	0xbcbd5b06	-0.023114692
129	0xbbf18fd7	-0.0073718834
130	0xbdb070dc	-0.08615276
131	0xbd69c413	-0.057071757
132	0xbd962ecb	-0.07333144
133	0x3defd352	0.11710228
134	0xbcb197f3	-0.0216789
135	0x3cbbd13d	0.022926921
136	0x3e01f9ff	0.12693022
137	0x3de6dacf	0.11272203
138	0x3d995b94	0.0748817
139	0xbcf02431	-0.029314132
140	0xbd7e25b5	-0.06204768
141	0xbc0c60ad	-0.008567971
142	0xbcabd3b8	-0.020974979
143	0x80093ed8	-8.49064e-40
144	0x00030cde	2.80122e-40
145	0x8025975c	-3.452211e-39
146	0x00233c32	3.235836e-39
147	0x0024c70c	3.377482e-39
148	0x000f8795	1.42617e-39
149	0x8003bc20	-3.42993e-40
150	0x0007191a	6.51853e-40
151	0x00063e52	5.73369e-40
152	0x0005a0dc	5.16883e-40
153	0x00058e73	5.10279e-40
154	0x000dbe1e	1.262063e-39
155	0x000c2d1b	1.118207e-39
156	0x3d6367f5	0.055519063
157	0x3d49ad2c	0.049237415
158	0x3b08a948	0.0020852853
159	0xbd226446	-0.03964641
160	0xbcf1ab38	-0.029500589
161	0x3e16a537	0.14711462
162	0x3e637eae	0.22216293
163	0xbcaad7a4	-0.020854779
164	0x3e26c787	0.16287051
165	0xbc8caa34	-0.017171003
166	0xbc8208bc	-0.015873305
167	0xbe2747ba	-0.16335955
168	0x3cb5d6c3	0.022197133
169	0x35c21c93	1.4462443e-06
170	0x35592ba7	8.090232e-07
171	0x3612d503	2.1879684e-06
172	0x36163d86	2.2387553e-06
173	0xb4736fbc	-2.2671787e-07
174	0x3177c3f4	3.6054617e-09
175	0x3193bea5	4.299937e-09
176	0x33717c87	5.6225442e-08
177	0x321f4dda	9.2727195e-09
178	0x102104e9	3.1755434e-29
179	0xabbcfa34	-1.3427649e-12
180	0x30fdc2a5	1.8463494e-09
181	0x389c8cdc	7.464897e-05
182	0x00092f17	8.43412e-40
183	0x80068869	-5.99948e-40
184	0x0006c2a3	6.20835e-40
185	0x8014989d	-1.891457e-39
186	0x00157481	1.970339e-39
187	0x80098ba2	-8.7661e-40
188	0x80083644	-7.54151e-40
189	0x0006751e	5.93027e-40
190	0x000999d7	8.81707e-40
191	0x0005799b	5.02801e-40
192	0x8001f8cc	-1.81087e-40
193	0x8002b085	-2.46994e-40
194	0x0015cad9	2.001313e-39
195	0xbd3f4f96	-0.04670676
196	0x3cea5f93	0.028610026
197	0x3d814c21	0.063133486
198	0xbd720f91	-0.059096877
199	0xbe827fa2	-0.25488
200	0x3e44178b	0.19149606
201	0xbe3636fe	-0.17794415
202	0xbddcc99f	-0.10780644
203	0x3e20848d	0.15675564
204	0xbd0978d5	-0.0335625
205	0xbdb1513b	-0.086580716
206	0x3e74a7a1	0.2389207
207	0xbd2ae491	-0.041721884
208	0x0006ac49	6.12817e-40
209	0x800be370	-1.09178e-39
210	0x0008007a	7.34855e-40
211	0x00056ae9	4.9753e-40
212	0x8004ecec	-4.52334e-40
213	0x800956b0	-8.57617e-40
214	0x8009f660	-9.14902e-40
215	0x8008e8d6	-8.1821e-40
216	0x000b3c61	1.03185e-39
217	0x80054894	-4.85214e-40
218	0x800b15bb	-1.017986e-39
219	0x800bf77b	-1.09897e-39
220	0x800a0973	-9.21745e-40
221	0x80062d3d	-5.67241e-40
222	0x000e0b69	1.28979e-39
223	0x0009ef9b	9.12474e-40
224	0x0003c770	3.47051e-40
225	0x80164a8c	-2.047123e-39
226	0x8004469f	-3.92676e-40
227	0x00002e62	1.6639e-41
228	0x001146f5	1.586658e-39
229	0x8005618b	-4.9417e-40
230	0x00043ce0	3.8918e-40
231	0x000ad6cc	9.9541e-40
232	0x800430ae	-3.84805e-40
233	0x8008ce20	-8.08628e-40
234	0x3dbc6b87	0.09200197
235	0x3b64b2b8	0.0034896564
236	0x3da1f9bc	0.07908961
237	0xbe0d3141	-0.1378832
238	0xbdfe5c42	-0.124199405
239	0x3cc02da6	0.023459267
240	0xbd5c9b2e	-0.05385893
241	0x3dbe240b	0.092842184
242	0x3d2f6b6d	0.04282706
243	0xbb81bd91	-0.0039593657
244	0x3d345647	0.044027593
245	0x3d3c2e56	0.045942627
246	0x3c55f103	0.01305795
247	0x000ca2e9	1.160467e-39
248	0x0007f8ef	7.32149e-40
249	0x8005f4c6	-5.46986e-40
250	0x0007d9c1	7.20964e-40
251	0x800eb2ae	-1.349795e-39
252	0x800f4acc	-1.404365e-39
253	0x80115d2f	-1.594631e-39
254	0x0008b929	8.01107e-40
255	0x000a6eb4	9.58068e-40

fc1.bias f4 [128]
0	0x81df9044	-8.2124274e-38
1	0x3609d462	2.0538214e-06
2	0x81dfe03e	-8.2239034e-38
3	0x82090bff	-1.0068613e-37
4	0x01a3f29a	6.022486e-38
5	0x34ef5540	4.4579247e-07
6	0x36a7b27e	4.997767e-06
7	0x0195b92e	5.4999676e-38
8	0x00081475	7.42023e-40
9	0xb8b4ca66	-8.6207685e-05
10	0x36774030	3.684323e-06
11	0x81afcd22	-6.45792e-38
12	0x365f7f18	3.3303568e-06
13	0x80f77fc8	-2.2729207e-38
14	0x000059aa	3.2165e-41
15	0x37ba6ef1	2.2224589e-05
16	0x821b4243	-1.1406618e-37
17	0x825984a9	-1.5980714e-37
18	0xb694126c	-4.4128883e-06
19	0x81b73410	-6.729829e-38
20	0x81b374dc	-6.59219e-38
21	0x01877fb4	4.9774413e-38
22	0x0001d138	1.66889e-40
23	0x800f4b23	-1.404486e-39
24	0x017a6da4	4.599641e-38
25	0x35792034	9.280659e-07
26	0x00482c30	6.628007e-39
27	0x00055595	4.89879e-40
28	0x37b8c6ec	2.202714e-05
29	0x38fb9142	0.00011995669
30	0xb7dbc7de	-2.6199905e-05
31	0x000ed648	1.362567e-39
32	0x8118c170	-2.8056775e-38
33	0xb7874bce	-1.6128553e-05
34	0x387ef96c	6.079061e-05
35	0xb69a7690	-4.60336e-06
36	0x81aaeb94	-6.2786175e-38
37	0x00e7f218	2.1300846e-38
38	0x80fc5500	-2.3173037e-38
39	0x825c0862	-1.6165453e-37
40	0x0003bd9e	3.43528e-40
41	0x35d56e48	1.5901833e-06
42	0x3791cb0a	1.7379894e-05
43	0x80048385	-4.14522e-40
44	0x376c4f86	1.4085212e-05
45	0x34b33de0	3.3386368e-07
46	0x38886d54	6.505349e-05
47	0x0100de34	2.366931e-38
48	0x38175083	3.6076188e-05
49	0x81760224	-4.51846e-38
50	0x35db38c9	1.6333298e-06
51	0xb73d0452	-1.1266284e-05
52	0x339450bc	6.9064725e-08
53	0x8003bdc0	-3.43576e-40
54	0xb5c5726c	-1.4710945e-06
55	0x000b8fa2	1.061716e-39
56	0xb6941d7b	-4.4141757e-06
57	0xb8009a54	-3.0661307e-05
58	0x358f58e0	1.0680196e-06
59	0xb7d30d6a	-2.5159407e-05
60	0x000d5864	1.22557e-39
61	0xb50d8d70	-5.273241e-07
62	0xb70b4d5b	-8.303056e-06
63	0x8009cc70	-8.99858e-40
64	0x81b4e1d9	-6.644563e-38
65	0xb87f5f65	-6.088558e-05
66	0x0171e3f0	4.4428246e-38
67	0x8222af75	-1.1952234e-37
68	0x81f7f9e0	-9.1092023e-38
69	0x37c400e8	2.3365443e-05
70	0x000bdc17	1.089144e-39
71	0x8213e45d	-1.0865391e-37
72	0xb4ef17b8	-4.4534477e-07
73	0x00069743	6.05275e-40
74	0xb819671a	-3.6574063e-05
75	0x00062b93	5.66644e-40
76	0x020bb892	1.0265076e-37
77	0xb80b608e	-3.3230106e-05
78	0x37724b12	1.4441803e-05
79	0x0180a2d2	4.725341e-38
80	0x01cb4f38	7.4684096e-38
81	0xb6acfe9c	-5.15564e-06
82	0x375f4255	1.330728e-05
83	0x383c7f67	4.4941346e-05
84	0xb7226443	-9.679296e-06
85	0xb753e7f0	-1.2630582e-05
86	0x01e20294	8.302299e-38
87	0x3789f634	1.644632e-05
88	0x00bf9328	1.759337e-38
89	0x386a11c8	5.5806508e-05
90	0x81b5609a	-6.6627516e-38
91	0x36973934	4.50681e-06
92	0xb6f1bfe0	-7.204697e-06
93	0x3761fd5a	1.3470033e-05
94	0x81a4dcfe	-6.0561194e-38
95	0x0189b53c	5.058591e-38
96	0x80d1eab8	-1.927782e-38
97	0x3661ee80	3.3666438e-06
98	0x025393ca	1.5544245e-37
99	0xb83faa3f	-4.5696503e-05
100	0x80ea7570	-2.1531635e-38
101	0xb71830ed	-9.071297e-06
102	0x365dc5c3	3.3046679e-06
103	0x82287cf8	-1.2378555e-37
104	0x81842b60	-4.855138e-38
105	0x01eb3a34	8.6408884e-38
106	0xb6808eac	-3.8313065e-06
107	0x809d8c60	-1.446853e-38
108	0xb839c0d0	-4.4287008e-05
109	0x00069e47	6.07792e-40
110	0xb6adde18	-5.181657e-06
111	0xb7dbd556	-2.6206177e-05
112	0x817ab574	-4.6047934e-38
113	0x01159ed8	2.7480943e-38
114	0x357c247c	9.393041e-07
115	0x0101c730	2.3836468e-38
116	0xb70c243a	-8.353085e-06
117	0xb77fc2e2	-1.5244559e-05
118	0x38977ea2	7.223828e-05
119	0x82ac4228	-2.53111e-37
120	0x37c5e333	2.3590028e-05
121	0x000630d8	5.68535e-40
122	0x80057e3d	-5.04463e-40
123	0x3854a954	5.0702438e-05
124	0x00d0a430	1.9160683e-38
125	0x377e26f1	1.51486465e-05
126	0xb6b48826	-5.380268e-06
127	0x015323c4	3.878024e-38

bn1.weight f4 [128]
0	0x0012ed6d	1.738211e-39
1	0x3e7dfa0e	0.2480242
2	0x001b5ed5	2.513578e-39
3	0x317f1e9b	3.712478e-09
4	0x001dd782	2.740539e-39
5	0x3e905ddd	0.28196612
6	0x3e56a414	0.20961028
7	0x00082109	7.46535e-40
8	0x800a0d33	-9.2309e-40
9	0x3ea32406	0.3186342
10	0x3e106800	0.14102173
11	0x80211b9f	-3.04048e-39
12	0x3e8874e5	0.26651683
13	0x3a96ca49	0.0011504377
14	0x0005a306	5.17659e-40
15	0x3ebd9e53	0.37034854
16	0x800812e3	-7.41459e-40
17	0x800798ac	-6.97617e-40
18	0x3e50d698	0.20394361
19	0x800dc49f	-1.264396e-39
20	0x001e244d	2.768087e-39
21	0x800cc110	-1.171284e-39
22	0x00056bea	4.9789e-40
23	0x000a9e4d	9.75143e-40
24	0x0005df52	5.3929e-40
25	0x3e6e3b4d	0.23264809
26	0x2a38f038	1.6425826e-13
27	0x800097f2	-5.4508e-41
28	0x3e91341e	0.28360075
29	0x3e7c688f	0.24649261
30	0x3f044c04	0.5167849
31	0x00097fdf	8.72391e-40
32	0x000b40ca	1.033432e-39
33	0x3e2c39ce	0.16818926
34	0x3e8a4bcd	0.27010956
35	0x3e4aefb1	0.19817998
36	0x3398c004	7.112979e-08
37	0x001fca55	2.919483e-39
38	0x80058d49	-5.09861e-40
39	0x80046e2b	-4.06863e-40
40	0x0005e24c	5.40358e-40
41	0x3e81d889	0.25360516
42	0x3e60fb43	0.21970849
43	0x000545ec	4.84261e-40
44	0x3ea90e5e	0.33018774
45	0x3d86091c	0.06544706
46	0x3e8d6cf5	0.2762219
47	0x3b9e452f	0.0048300247
48	0x3f05e7e3	0.52306956
49	0x80060ae8	-5.54925e-40
50	0x3dd81a5c	0.10551903
51	0x3e385d61	0.18004371
52	0x3cc594b0	0.024118751
53	0x0006dee7	6.30975e-40
54	0x3da0f451	0.078591
55	0x0023b458	3.278938e-39
56	0x3d98d2d4	0.07462087
57	0x3e23fab0	0.16013598
58	0x3db2fbdc	0.087394446
59	0x3e884cab	0.26620993
60	0x00052b16	4.74634e-40
61	0x3e9f953c	0.31168544
62	0x3e64d71d	0.22347684
63	0x001f9180	2.899096e-39
64	0x002805e3	3.675532e-39
65	0x3e5d0848	0.2158519
66	0x3b879cbb	0.004138557
67	0x000c5835	1.133669e-39
68	0x0013c2c0	1.814738e-39
69	0x3e861269	0.2618592
70	0x800aa8ac	-9.78863e-40
71	0x000fba03	1.444261e-39
72	0x3d9c2d30	0.07625806
73	0x00103e47	1.491709e-39
74	0x3ea84ea5	0.328725
75	0x000bd69b	1.087176e-39
76	0x0004b4d2	4.32208e-40
77	0x3e751db1	0.23937108
78	0x3e30565d	0.17220445
79	0x80063467	-5.69811e-40
80	0x000c090f	1.105276e-39
81	0x3eba60f9	0.3640211
82	0x3e80809d	0.25098124
83	0x3e557bba	0.20847979
84	0x3e306eed	0.17229815
85	0x3e824f4f	0.25451133
86	0x000ff546	1.46552e-39
87	0x3eb78c99	0.35849455
88	0x001f857b	2.894784e-39
89	0x3e9b1835	0.30291906
90	0x000e9431	1.338858e-39
91	0x3d9db49e	0.077004656
92	0x3e5911c4	0.21198183
93	0x3e65ba0e	0.22434255
94	0x000807db	7.37502e-40
95	0x33a5eb12	7.72617e-08
96	0x0023c600	3.285271e-39
97	0x3e39f4ba	0.18159762
98	0x1dad65eb	4.58981e-21
99	0x3e89fb3d	0.26949492
100	0x284ce894	1.1374707e-14
101	0x3e4c7a23	0.19968466
102	0x3e6a0e1e	0.22856948
103	0x001f4f3f	2.875329e-39
104	0x000cef7a	1.187934e-39
105	0x0022dd34	3.20176e-39
106	0x3e2c2af5	0.16813262
107	0x0011a4db	1.620342e-39
108	0x3e5863d9	0.21131839
109	0x0004edca	4.52645e-40
110	0x3e86b7f0	0.26312208
111	0x3e55400b	0.20825212
112	0x800f03f1	-1.378946e-39
113	0x000eee85	1.371262e-39
114	0x3e4aefa8	0.19817984
115	0x0022f3a3	3.209807e-39
116	0x3e0e52ab	0.13898723
117	0x3e258d19	0.16167106
118	0x3e988892	0.29791695
119	0x000edadc	1.364209e-39
120	0x3ea076a3	0.31340513
121	0x800c21e6	-1.114186e-39
122	0x000fa593	1.436929e-39
123	0x3e15b126	0.14618358
124	0x0006b169	6.14656e-40
125	0x3e4ebb83	0.20188718
126	0x3e54d8d9	0.20785846
127	0x00246d29	3.345237e-39

bn1.bias f4 [128]
0	0x8015333b	-1.946923e-39
1	0xbdd638b4	-0.10460034
2	0x801e5f3b	-2.789227e-39
3	0xb12f590f	-2.5516476e-09
4	0x002a569b	3.888159e-39
5	0x3cb6a620	0.022296011
6	0xbdc62af8	-0.096761644
7	0x8008843f	-7.82125e-40
8	0x0012ab5f	1.714515e-39
9	0xbd34686e	-0.044044904
10	0xbd516770	-0.051124036
11	0x80011d9e	-1.0246e-40
12	0xbd2d9ec3	-0.042387735
13	0xb99dc8e8	-0.0003009506
14	0x80068246	-5.97746e-40
15	0xbd618634	-0.055059627
16	0x0008db55	8.13365e-40
17	0x00091b20	8.3625e-40
18	0xbe18ac85	-0.14909561
19	0x00061147	5.57211e-40
20	0x80202b71	-2.95432e-39
21	0x000dd6a8	1.270866e-39
22	0x8007b1f2	-7.06683e-40
23	0x800894ff	-7.88134e-40
24	0x80062d31	-5.67225e-40
25	0xbdbf0c9d	-0.09328578
26	0xa5546a2e	-1.8424044e-16
27	0x800732dc	-6.61093e-40
28	0xbe17f56f	-0.14839719
29	0xbe1d3b0d	-0.15354557
30	0xbdf5eabb	-0.12007662
31	0x80093af9	-8.47675e-40
32	0x800d4403	-1.21826e-39
33	0xbdcee4f2	-0.101022616
34	0xbbfb267b	-0.0076644993
35	0x3cd2c5f0	0.02572915
36	0xb002c5b9	-4.7574705e-10
37	0x8022d5f6	-3.199162e-39
38	0x0007c4bd	7.13425e-40
39	0x000424ac	3.80497e-40
40	0x8005bece	-5.27625e-40
41	0xbd787043	-0.060653936
42	0xbd92d673	-0.07169809
43	0x800970fa	-8.67048e-40
44	0xbe12d751	-0.14339949
45	0xbd6e203b	-0.058136206
46	0xbd757c71	-0.05993313
47	0xbc349047	-0.0110207265
48	0xbd81db4a	-0.06340654
49	0x0007d33c	7.18625e-40
50	0xbd136ff9	-0.035995457
51	0xbd99f3e7	-0.07517224
52	0xbccf8e67	-0.025336457
53	0x80071df0	-6.53588e-40
54	0xbd4d9e0e	-0.05019956
55	0x0001f8a1	1.81027e-40
56	0xbd8b5215	-0.06802765
57	0xbdeba162	-0.11505391
58	0xbd69e75e	-0.057105415
59	0xbdf09bd5	-0.117484726
60	0x80000bfe	-4.302e-42
61	0xbd1548a9	-0.036446247
62	0xbdb09a17	-0.0862314
63	0x80261519	-3.497317e-39
64	0x0002a1a9	2.41664e-40
65	0xbda52831	-0.080643065
66	0xbb59c1fb	-0.0033227194
67	0x800eef54	-1.371552e-39
68	0x8014e2cf	-1.918074e-39
69	0x3e1d9380	0.15388298
70	0x000bcfbf	1.084716e-39
71	0x801316ec	-1.753097e-39
72	0xbdab8f73	-0.0837697
73	0x80119dc0	-1.617793e-39
74	0xbdf4e26d	-0.1195725
75	0x800dd767	-1.271133e-39
76	0x80056b3b	-4.97645e-40
77	0xbdac0f3b	-0.084013425
78	0xbd3eb033	-0.046554755
79	0x0005e847	5.42503e-40
80	0x800e8ede	-1.336948e-39
81	0xbdbd276e	-0.09236036
82	0xbd8fc4c4	-0.07019952
83	0xbd9b4ba1	-0.075827844
84	0xbd0e36d0	-0.034720242
85	0xbc383702	-0.011243584
86	0x8010010c	-1.469743e-39
87	0x3dfc932f	0.123327605
88	0x00296532	3.801557e-39
89	0x3d895cb5	0.067071356
90	0x801177f8	-1.60424e-39
91	0xbd099e32	-0.033598132
92	0xbe13d376	-0.14436135
93	0xbd3bc8d3	-0.045845818
94	0x8004a72d	-4.27313e-40
95	0xb08eed2a	-1.0399266e-09
96	0x80216dba	-3.069934e-39
97	0xbd73e442	-0.059543855
98	0x902dfe98	-3.4314366e-29
99	0xbda35485	-0.07975105
100	0x953a0faf	-3.7574773e-26
101	0xbd9518fd	-0.07280157
102	0xbbc02570	-0.005863838
103	0x801fde65	-2.92668e-39
104	0x801073a7	-1.510856e-39
105	0x8002eaa7	-2.67848e-40
106	0xbd856552	-0.06513466
107	0x80137ab7	-1.788896e-39
108	0xbbaa2a1c	-0.005193008
109	0x800701ae	-6.43451e-40
110	0xbd7104e9	-0.058842573
111	0xbd16fc3c	-0.036861643
112	0x000f14b7	1.384964e-39
113	0x801080cf	-1.515576e-39
114	0xbd99f237	-0.07516902
115	0x80226977	-3.16024e-39
116	0xbc81bed5	-0.015838066
117	0x3c82be9f	0.015960036
118	0xbe3ae250	-0.18250394
119	0x80130555	-1.746787e-39
120	0x3d87b675	0.06626598
121	0x0010cc84	1.542734e-39
122	0x80112cda	-1.577293e-39
123	0xbd77a993	-0.060464453
124	0x8006d3ef	-6.2704e-40
125	0xbdccfb2f	-0.10008847
126	0x3b23aa41	0.0024973305
127	0x801c872d	-2.619886e-39

bn1.running_mean f4 [128]
0	0x800bff4d	-1.101775e-39
1	0xbd3fd8c9	-0.0468376
2	0x0023319d	3.23204e-39
3	0x23c7a365	2.1644824e-17
4	0x0006057c	5.5298e-40
5	0xbd7317ef	-0.059348997
6	0xbd0ff8bc	-0.03514932
7	0x800dec6a	-1.278671e-39
8	0x80143a3c	-1.8576e-39
9	0xbb9b143a	-0.004732636
10	0xbb851b59	-0.004062098
11	0x80113a16	-1.582041e-39
12	0x3c808462	0.015688125
13	0x37ae4c8c	2.0778061e-05
14	0x000ba2b7	1.068562e-39
15	0xbc8a12c6	-0.016854655
16	0x0038462a	5.167958e-39
17	0x802046b6	-2.964102e-39
18	0x3c49860c	0.012300026
19	0x8002ad71	-2.4589e-40
20	0x00696f17	9.682579e-39
21	0x000d4125	1.217231e-39
22	0x80095ca6	-8.59755e-40
23	0x800ee7bc	-1.368828e-39
24	0x807cf41f	-1.1475176e-38
25	0x3bbd49ea	0.0057766335
26	0x23d87634	2.3468828e-17
27	0x00026072	2.18269e-40
28	0xbb02aaec	-0.0019938303
29	0x3e2b0fa7	0.1670519
30	0x3e96489e	0.29352278
31	0x00126c80	1.691961e-39
32	0x8066f3d7	-9.454694e-39
33	0xbcbb5508	-0.022867694
34	0x3e3d9c5d	0.18516679
35	0xbde17d96	-0.11010282
36	0x29d3bcc4	9.403028e-14
37	0x80417c87	-6.013979e-39
38	0x801b8887	-2.528535e-39
39	0x005fbe58	8.792655e-39
40	0x80057535	-5.01223e-40
41	0xbe5a689c	-0.21328968
42	0x3e94cb80	0.29061508
43	0x800997c3	-8.80961e-40
44	0x3c91b15e	0.01778477
45	0xbc3a52bb	-0.011372264
46	0xbda4ae4e	-0.080410585
47	0x3b212aa6	0.002459207
48	0xbe82282c	-0.25421274
49	0x007ec6bb	1.1642564e-38
50	0x3c35edc1	0.011104048
51	0xbe55cbca	-0.2087852
52	0x3bebfe0f	0.007201917
53	0x8002ce51	-2.57683e-40
54	0x3c14fd58	0.009093605
55	0x800b5740	-1.04149e-39
56	0xbc1a5fff	-0.009422301
57	0xbe1da39b	-0.15394442
58	0x3c8c9fc7	0.017166032
59	0x3ada8c62	0.0016673917
60	0x800e07b3	-1.288459e-39
61	0xbd7af665	-0.061270136
62	0xbe574b0d	-0.21024723
63	0x0006b339	6.15306e-40
64	0x0062ff13	9.091382e-39
65	0xbe0bfdc7	-0.13671027
66	0xb9293fb4	-0.00016140827
67	0x003b49c8	5.444762e-39
68	0x006ec0f9	1.017113e-38
69	0xbdfa75cd	-0.122295
70	0x001148fd	1.587387e-39
71	0x0082867f	1.1986863e-38
72	0xbd1f3edd	-0.03887831
73	0x8007aea9	-7.05505e-40
74	0xbd66f072	-0.05638165
75	0x800f48f6	-1.403706e-39
76	0x8062d760	-9.07714e-39
77	0xbe1232e8	-0.14277232
78	0xbd536bab	-0.051616352
79	0x8060a28f	-8.874523e-39
80	0x00041344	3.74253e-40
81	0x3db061e2	0.0861242
82	0xbe0ed72a	-0.13949266
83	0x3ca53e1e	0.020171221
84	0xbd63ccb5	-0.055615146
85	0xbdbfe43e	-0.093697056
86	0x8075e9ce	-1.0828626e-38
87	0x3e9fd9f0	0.3122096
88	0x001c264a	2.58513e-39
89	0x3e0e38cc	0.13888854
90	0x005a659e	8.301648e-39
91	0x3d3c3c5d	0.045956004
92	0x3e10328e	0.14081785
93	0x3d5ebbd2	0.05437834
94	0x008e974a	1.3094913e-38
95	0xac688334	-3.3042015e-12
96	0x80233510	-3.233278e-39
97	0x3d1336ba	0.035940863
98	0x089168ee	8.751539e-34
99	0x3e06a982	0.131506
100	0x140f1d74	7.2254636e-27
101	0x3d4818da	0.048851825
102	0xbd963349	-0.073340006
103	0x005a5b7f	8.298017e-39
104	0x0056fe80	7.98915e-39
105	0x000eebd1	1.370292e-39
106	0x3ebb36de	0.36565298
107	0x801e9a18	-2.810343e-39
108	0xbdde2254	-0.10846391
109	0x8005a997	-5.20015e-40
110	0x3e237d5a	0.15965787
111	0xbdea290b	-0.114336096
112	0x0077b0a5	1.0991792e-38
113	0x8072150b	-1.0476795e-38
114	0x3d25d7b3	0.04048891
115	0x80776664	-1.0965155e-38
116	0x3c1891f5	0.009312143
117	0xbdb9a6e3	-0.09065034
118	0x3e4d8617	0.20070682
119	0x005479f7	7.757934e-39
120	0xbec89300	-0.39174652
121	0x00119942	1.616182e-39
122	0x8003066a	-2.77807e-40
123	0xbdedc0ce	-0.1160904
124	0x801db406	-2.72781e-39
125	0xbdd2db1f	-0.102957
126	0xbdeb2e9b	-0.11483499
127	0x808d69c4	-1.2986747e-38

bn1.running_var f4 [128]
0	0x00000004	6e-45
1	0x3c21e09b	0.00988021
2	0x00000004	6e-45
3	0x09039a68	1.5841153e-33
4	0x00000004	6e-45
5	0x3bab1745	0.00522128
6	0x3b707a6c	0.0036694063
7	0x00000004	6e-45
8	0x00000004	6e-45
9	0x3b82d3d6	0.003992538
10	0x3b6f6a7b	0.0036531973
11	0x00000004	6e-45
12	0x3bef5644	0.007303985
13	0x308e374e	1.0347578e-09
14	0x00000004	6e-45
15	0x3c22a555	0.009927114
16	0x00000004	6e-45
17	0x00000004	6e-45
18	0x3bb56f44	0.0055369455
19	0x00000004	6e-45
20	0x00000004	6e-45
21	0x00000004	6e-45
22	0x00000004	6e-45
23	0x00000004	6e-45
24	0x00000004	6e-45
25	0x3c32379e	0.010877518
26	0x07bef52f	2.8732129e-34
27	0x00000004	6e-45
28	0x3b4a419b	0.0030861858
29	0x3ba1082c	0.0049143042
30	0x3c7939ad	0.015211505
31	0x00000004	6e-45
32	0x00000004	6e-45
33	0x3b1b03a9	0.0023653305
34	0x3b65f475	0.0035088335
35	0x3b8665b7	0.004101481
36	0x14669b3f	1.16426494e-26
37	0x00000004	6e-45
38	0x00000004	6e-45
39	0x00000004	6e-45
40	0x00000004	6e-45
41	0x3c285845	0.010274951
42	0x3bd9ac5b	0.006642861
43	0x00000004	6e-45
44	0x3b46d026	0.0030336468
45	0x39a71c02	0.0003187359
46	0x3b02176d	0.0019850389
47	0x36970ac9	4.5014062e-06
48	0x3c4d6673	0.012536633
49	0x00000004	6e-45
50	0x3ac44705	0.0014974779
51	0x3b068cd4	0.0020530717
52	0x391324bd	0.00014032699
53	0x00000004	6e-45
54	0x39a84c79	0.00032100434
55	0x00000004	6e-45
56	0x3a1361c7	0.0005622175
57	0x3b12b36b	0.0022384773
58	0x39b4824d	0.00034429357
59	0x3c11526b	0.008869748
60	0x00000004	6e-45
61	0x3bd938b6	0.006629075
62	0x3abe19c5	0.001450353
63	0x00000004	6e-45
64	0x00000004	6e-45
65	0x3b4584ca	0.0030138963
66	0x33aad4c3	7.954943e-08
67	0x00000004	6e-45
68	0x00000004	6e-45
69	0x3ba4b01c	0.0050258767
70	0x00000004	6e-45
71	0x00000004	6e-45
72	0x3a63137f	0.0008662268
73	0x00000004	6e-45
74	0x3b2f85bf	0.00267826
75	0x00000004	6e-45
76	0x00000004	6e-45
77	0x3b6addd8	0.0035837796
78	0x3b9a929d	0.0047171847
79	0x00000004	6e-45
80	0x00000004	6e-45
81	0x3c3c93c7	0.011509842
82	0x3c023576	0.007947316
83	0x3b3566da	0.0027679713
84	0x3bb32a50	0.0054676905
85	0x3b55ec7f	0.0032642183
86	0x00000004	6e-45
87	0x3bdf0c26	0.006806868
88	0x00000004	6e-45
89	0x3c0d1c8f	0.008612766
90	0x00000004	6e-45
91	0x3b01da46	0.001981394
92	0x3b74ef5b	0.0037374112
93	0x3bcdf82b	0.0062856874
94	0x00000004	6e-45
95	0x1e2d4956	9.173709e-21
96	0x00000004	6e-45
97	0x3b8c6f4b	0.004285728
98	0x00000004	6e-45
99	0x3b46b84c	0.0030322252
100	0x00000004	6e-45
101	0x3bd19ce7	0.006396878
102	0x3b2dd53b	0.00265248
103	0x00000004	6e-45
104	0x00000004	6e-45
105	0x00000004	6e-45
106	0x3b5c5a3a	0.0033623115
107	0x00000004	6e-45
108	0x3b8f09da	0.004365188
109	0x00000004	6e-45
110	0x3ba24f03	0.0049532666
111	0x3b4c8de8	0.0031212512
112	0x00000004	6e-45
113	0x00000004	6e-45
114	0x3b5b01fc	0.003341793
115	0x00000004	6e-45
116	0x3af0376c	0.0018327064
117	0x3b9e8c60	0.0048385113
118	0x3be2c500	0.006920457
119	0x00000004	6e-45
120	0x3bdce75e	0.0067414483
121	0x00000004	6e-45
122	0x00000004	6e-45
123	0x3a60ec14	0.00085801
124	0x00000004	6e-45
125	0x3aaff85a	0.0013425455
126	0x3bfa2e2b	0.007634898
127	0x00000004	6e-45

fc2.weight f4 [256, 128]
0	0x8001ca38	-1.64378e-40
1	0x3c142587	0.00904215
2	0x00084791	7.60357e-40
3	0x0000903e	5.1744e-41
4	0x000d5fd2	1.228235e-39
5	0x39651124	0.00021845527
6	0x3c5ccc7a	0.013476485
7	0x8000ee80	-8.5558e-41
8	0x80011e03	-1.02602e-40
9	0xbafbace9	-0.0019201312
10	0x3d1a52ec	0.037676737
11	0x0012583f	1.684696e-39
12	0x3b66b75c	0.0035204506
13	0x803a97d2	-5.380922e-39
14	0x800195ea	-1.45615e-40
15	0xbc4859a0	-0.0122283995
16	0x8014c0cd	-1.905874e-39
17	0x0013def3	1.824854e-39
18	0xbcbf8dc5	-0.02338303
19	0x80035414	-3.05668e-40
20	0x800ffb1d	-1.467615e-39
21	0x8007c0f3	-7.12066e-40
22	0x8000d5b2	-7.666e-41
23	0x8007c0ec	-7.12056e-40
24	0x00077101	6.83387e-40
25	0x3caa3626	0.020777773
26	0x00116505	1.597442e-39
27	0x8006913a	-6.0311e-40
28	0xbcd662cf	-0.026170162
29	0x3c8aa502	0.016924385
30	0x3ad58fcc	0.0016293465
31	0x0001c4f0	1.62483e-40
32	0x8001e646	-1.74442e-40
33	0xbb4a3889	-0.0030856451
34	0x3c5a884b	0.013338159
35	0x3c92388c	0.01784923
36	0x00099347	8.79353e-40
37	0x00088fd8	7.86285e-40
38	0x00115f7b	1.595455e-39
39	0x80102fc7	-1.486507e-39
40	0x80068074	-5.97093e-40
41	0x3d0a60c8	0.033783704
42	0xbc8afe2e	-0.016966905
43	0x80064d6e	-5.7879e-40
44	0x3bba8ee7	0.005693305
45	0xbbee3dc8	-0.0072705485
46	0x3cce8638	0.025210485
47	0x32665dba	1.3409073e-08
48	0xbd32dc6a	-0.043667234
49	0x8001be1a	-1.60031e-40
50	0x39de550e	0.0004240651
51	0x3ca7e4e7	0.020494891
52	0x3bbcda17	0.005763303
53	0x80040699	-3.69709e-40
54	0x3c9f92a4	0.019479103
55	0x8011c66b	-1.632382e-39
56	0xbc153dfc	-0.0091090165
57	0x38932e4a	7.018128e-05
58	0xbcb639e6	-0.022244405
59	0xbc0e097f	-0.008669256
60	0x0004f5be	4.55498e-40
61	0x3c435c66	0.011923885
62	0xbbe95b19	-0.0071214554
63	0x800f191b	-1.386539e-39
64	0x8004282d	-3.81754e-40
65	0xbc084be5	-0.008318876
66	0x9bee95cb	-3.9470599e-22
67	0x0007b323	7.0711e-40
68	0x800278cb	-2.27003e-40
69	0xbcdb3d31	-0.026762577
70	0x00090f19	8.31935e-40
71	0x0003d7be	3.529e-40
72	0x3c422239	0.01184898
73	0x80012ced	-1.07952e-40
74	0xbc8ed10e	-0.01743367
75	0x80093ef8	-8.49108e-40
76	0x8009f427	-9.14105e-40
77	0x3c18aa54	0.009317953
78	0x3c33fd13	0.010985631
79	0x80128adf	-1.702856e-39
80	0x80073edf	-6.65402e-40
81	0x3c3de690	0.011590615
82	0xbcb747f8	-0.022373185
83	0xbb83dbaf	-0.004023991
84	0x3c58a79c	0.013223555
85	0xbc99b1e5	-0.018761585
86	0x8008f60b	-8.22948e-40
87	0xbd00cd8b	-0.03144602
88	0x000fde2a	1.45723e-39
89	0x3b6e18ea	0.0036330768
90	0x00009458	5.3216e-41
91	0x3cb780be	0.022400256
92	0xbbe7bd99	-0.0070721623
93	0x3c157f4e	0.00912459
94	0x00002b50	1.5538e-41
95	0x0006dde8	6.30618e-40
96	0x800bb274	-1.074207e-39
97	0xbb8f8f81	-0.0043811207
98	0x000b8e53	1.061247e-39
99	0xbcbcf5dd	-0.023066455
100	0x001c1f3c	2.582599e-39
101	0x3c7670a4	0.015041504
102	0x3d055960	0.032555938
103	0x800bc367	-1.080288e-39
104	0x8009afd4	-8.89595e-40
105	0x00124f22	1.681426e-39
106	0xbced92c4	-0.029000647
107	0x00034001	2.98467e-40
108	0x3c3f09a9	0.011660018
109	0x00047580	4.09493e-40
110	0x3c54354c	0.01295216
111	0xbd08b86d	-0.033379007
112	0x80032701	-2.89498e-40
113	0x0002e6db	2.66486e-40
114	0xbcd60209	-0.026124017
115	0x8013ab32	-1.806288e-39
116	0x3c792961	0.015207619
117	0x3cdd57c1	0.027019383
118	0x3bf913e1	0.0076012467
119	0x00073c6b	6.64522e-40
120	0xbce5a4e7	-0.028032733
121	0x80067fa9	-5.96809e-40
122	0x00098f6c	8.7797e-40
123	0xbc4ea390	-0.0126122385
124	0x8001a167	-1.49736e-40
125	0xbbb5a2a8	-0.005543072
126	0x3c071ece	0.0082470905
127	0x800dcd19	-1.267437e-39
128	0x0007696b	6.80665e-40
129	0x3dd6e44e	0.104927644
130	0x000bd5f3	1.086941e-39
131	0x0e51598d	2.5804356e-30
132	0x800ca569	-1.161364e-39
133	0xbd3cdafb	-0.046107274
134	0x3d2b3cf8	0.04180619
135	0x000221eb	1.95838e-40
136	0x800d110a	-1.199974e-39
137	0x3cc3a5b3	0.023882722
138	0xbd5a6ff2	-0.053329416
139	0x800eb247	-1.349651e-39
140	0xbd791104	-0.060807243
141	0x2da5c27c	1.8844697e-11
142	0x800595af	-5.12874e-40
143	0xbde8ad01	-0.11361123
144	0x000b10a1	1.016156e-39
145	0x800c3dc7	-1.124187e-39
146	0x3d7ad85b	0.06124149
147	0x800ff8b1	-1.466746e-39
148	0x00090cea	8.31152e-40
149	0x000d18cc	1.202757e-39
150	0x0008113e	7.4087e-40
151	0x800e2e59	-1.302323e-39
152	0x8007edaf	-7.28113e-40
153	0x3db105b6	0.086436674
154	0x001a746a	2.429484e-39
155	0x00008007	4.5928e-41
156	0xbcfd2628	-0.030901983
157	0xbc0f92ef	-0.008763059
158	0x3dd300c4	0.103028804
159	0x800d8896	-1.242859e-39
160	0x0003dd10	3.54809e-40
161	0xbc543551	-0.012952165
162	0x3bcf21b1	0.006321155
163	0x3dac26ca	0.08405836
164	0x8017ab9b	-2.173777e-39
165	0x8009c426	-8.96884e-40
166	0x800235d9	-2.02988e-40
167	0x8001188b	-1.0064e-40
168	0x000a6f41	9.58265e-40
169	0x3c57930c	0.013157617
170	0x3a6e8e64	0.00091001973
171	0x8002910f	-2.35708e-40
172	0xbb21abf8	-0.0024669152
173	0x3cb21706	0.021739494
174	0x3cf7a381	0.030229332
175	0xb814c397	-3.5468107e-05
176	0x3e08274b	0.13296239
177	0x000a8c61	9.68713e-40
178	0xbd0b3e97	-0.033995237
179	0x3b5a7c63	0.00333383
180	0xbc13ec53	-0.009028512
181	0x800a388f	-9.38644e-40
182	0x3c890fa7	0.016731096
183	0x000445c2	3.92366e-40
184	0xbd172227	-0.036897805
185	0x3d08fbb9	0.033443186
186	0x3bf55301	0.0074867015
187	0x3d7831d3	0.06059439
188	0x8011e3e7	-1.64296e-39
189	0xbd20466f	-0.03912967
190	0xbd92199a	-0.07133789
191	0x0002bfa1	2.52414e-40
192	0x800b13c3	-1.01728e-39
193	0x3d1ade2d	0.03780954
194	0xae4d1b02	-4.663559e-11
195	0x00113906	1.58166e-39
196	0x0006b790	6.16863e-40
197	0xbaba0824	-0.00141931
198	0x8009be8c	-8.94875e-40
199	0x80043670	-3.8687e-40
200	0x3c30fb63	0.010802123
201	0x00066e44	5.90569e-40
202	0xbda94f63	-0.08267095
203	0x8003b8ba	-3.41774e-40
204	0x80062b44	-5.66534e-40
205	0x3c1068c4	0.008814041
206	0x3d3f5b1e	0.046717755
207	0x000eb8dc	1.352012e-39
208	0x8011bdbe	-1.62927e-39
209	0xbb0a7454	-0.0021126466
210	0xbd965d4a	-0.07342012
211	0x3d874f24	0.06606892
212	0xbdd4892f	-0.10377728
213	0xbd2dc68b	-0.042425673
214	0x0013c168	1.814256e-39
215	0xbd5fdec9	-0.054655824
216	0x80098763	-8.75087e-40
217	0x3d88ea29	0.066852875
218	0x0007cb6e	7.15825e-40
219	0xbcd64c12	-0.02615932
220	0xbd44349e	-0.047901742
221	0xbc9ac722	-0.018893782
222	0x800b342e	-1.028909e-39
223	0xa0c48f5a	-3.3298554e-19
224	0x800c27d6	-1.116316e-39
225	0x3c7e2bcc	0.015513372
226	0x801e43dc	-2.779408e-39
227	0x392d4e3d	0.00016527712
228	0x802a5566	-3.887726e-39
229	0x3cfa7c10	0.030576736
230	0x3a8992f7	0.001049607
231	0x802614d7	-3.497225e-39
232	0x0004d137	4.42394e-40
233	0x80147939	-1.880196e-39
234	0xbc9acfc2	-0.018897895
235	0x80056fca	-4.9928e-40
236	0x3d6b197d	0.057397354
237	0x800a842f	-9.65774e-40
238	0x3dd6ad3c	0.104822606
239	0x3cf9d29e	0.030495938
240	0x00109a70	1.52477e-39
241	0x80071d16	-6.53283e-40
242	0xbd0bf559	-0.03416953
243	0x0009fcf1	9.17258e-40
244	0x3c898765	0.016788194
245	0xbd85dc04	-0.06536105
246	0xbdcc2437	-0.09967845
247	0x801303f4	-1.746293e-39
248	0x3d46b51f	0.048512574
249	0x000c759d	1.144218e-39
250	0x8007e9e6	-7.26755e-40
251	0x3bde8697	0.0067909467
252	0x8008b1ca	-7.98463e-40
253	0x3d99b604	0.0750542
254	0xbb9003ab	-0.0043949685
255	0x000663f0	5.86864e-40

fc2.bias f4 [256]
0	0xb642e791	-2.9043042e-06
1	0x35bc72b8	1.4040479e-06
2	0x3684cb80	3.957597e-06
3	0x0234156a	1.3230457e-37
4	0x00445c98	6.27803e-39
5	0x37970ee0	1.800753e-05
6	0x013e38fc	3.4938373e-38
7	0x35806414	9.56587e-07
8	0xb6866dd4	-4.006297e-06
9	0x81168790	-2.764791e-38
10	0x3718db7c	9.111009e-06
11	0x8005252f	-4.72516e-40
12	0x004a1078	6.801735e-39
13	0xb73d2714	-1.1274376e-05
14	0x82076897	-9.948249e-38
15	0x36f186b2	7.1980403e-06
16	0xb68d6b08	-4.2145875e-06
17	0x016d919c	4.3634495e-38
18	0x013cf308	3.4704513e-38
19	0x37c3d68e	2.3345721e-05
20	0x36de5494	6.6259618e-06
21	0x01bad5b8	6.863228e-38
22	0x01f64dcc	9.047776e-38
23	0x0008e444	8.1657e-40
24	0xb7cb2977	-2.4218794e-05
25	0x81bdb7f8	-6.969162e-38
26	0x029bd1a3	2.2895529e-37
27	0x37a27f18	1.9371088e-05
28	0x37317274	1.057667e-05
29	0x36a0d042	4.792616e-06
30	0x8001a182	-1.49774e-40
31	0x37d96576	2.5915662e-05
32	0xb5710e90	-8.980069e-07
33	0xb4dfb1d0	-4.1666362e-07
34	0xb7003074	-7.640676e-06
35	0x821bd1cf	-1.1447814e-37
36	0x350712a8	5.031857e-07
37	0x018a55ee	5.0816497e-38
38	0xb78ff5c5	-1.7161374e-05
39	0x01f91848	9.1502996e-38
40	0x80878ed0	-1.2449023e-38
41	0x370b0bf8	8.287832e-06
42	0xb7a1e25a	-1.9298099e-05
43	0xb6a97bb4	-5.0509934e-06
44	0xb79871ee	-1.8172865e-05
45	0x827d94b7	-1.8630183e-37
46	0x8002e01d	-2.64068e-40
47	0x817c8ac0	-4.6384638e-38
48	0x82605641	-1.6481675e-37
49	0x0202f5d3	9.62144e-38
50	0xb6ee78c0	-7.10701e-06
51	0x372471da	9.80167e-06
52	0x0002aa97	2.44867e-40
53	0xb70e654f	-8.487447e-06
54	0xb3b1f300	-8.286406e-08
55	0x8001bb7f	-1.59096e-40
56	0x81d1cc68	-7.7067783e-38
57	0x37773396	1.4734358e-05
58	0x01626cb0	4.1587624e-38
59	0xb85906e2	-5.174324e-05
60	0xb6b1acfa	-5.295148e-06
61	0x81e5cac6	-8.441228e-38
62	0xb58ace24	-1.0341796e-06
63	0x81a60b34	-6.0994845e-38
64	0xb7b7cd36	-2.1910859e-05
65	0x36c61396	5.90314e-06
66	0x8203be5c	-9.67899e-38
67	0x01929eae	5.3859624e-38
68	0x364a5248	3.014824e-06
69	0x01f1e0b6	8.885186e-38
70	0x01daa732	8.0320466e-38
71	0xb7a9c78a	-2.0239288e-05
72	0x0002341d	2.02366e-40
73	0xb71fbf85	-9.52173e-06
74	0xb4dfa258	-4.1655107e-07
75	0xb780342a	-1.528308e-05
76	0x0001fff3	1.83653e-40
77	0xb82ca40e	-4.1160783e-05
78	0x37cb276a	2.421784e-05
79	0x8299932a	-2.2565797e-37
80	0xb4896ea0	-2.559873e-07
81	0x816fd4cc	-4.4050041e-38
82	0xb630e733	-2.636062e-06
83	0x80bddf90	-1.7437108e-38
84	0x35a8c3a4	1.2573914e-06
85	0x3613e966	2.2040563e-06
86	0xb8044570	-3.153592e-05
87	0x368d6bdd	4.2146844e-06
88	0xb71e0e59	-9.420874e-06
89	0xb7bb1eaa	-2.2306416e-05
90	0xb6e1479d	-6.7138594e-06
91	0x369af5f8	4.618192e-06
92	0x01bc0b68	6.907666e-38
93	0xb81a5e30	-3.680418e-05
94	0xb71a357d	-9.191569e-06
95	0x009eddd0	1.458958e-38
96	0x0221fe1c	1.1901338e-37
97	0xb6c6b251	-5.9216186e-06
98	0x80052eae	-4.75923e-40
99	0x3772390e	1.4437608e-05
100	0x01f545c4	9.0098895e-38
101	0x8001fce4	-1.82556e-40
102	0xb731e5aa	-1.0603495e-05
103	0x81adf314	-6.3898963e-38
104	0x815c1e04	-4.0429153e-38
105	0x82045333	-9.721705e-38
106	0x3713b9b5	8.805121e-06
107	0x369b096f	4.620458e-06
108	0xb782b360	-1.5580736e-05
109	0x800613ab	-5.58069e-40
110	0x01e96682	8.5737774e-38
111	0x014f030c	3.8022081e-38
112	0x82079069	-9.959677e-38
113	0x01fc5144	9.268679e-38
114	0x3862f0ee	5.4106982e-05
115	0xb7415d41	-1.1525409e-05
116	0x01ab2718	6.2871576e-38
117	0x8210622a	-1.0607621e-37
118	0xb7027021	-7.774711e-06
119	0xb5b37b80	-1.3372482e-06
120	0x3555eb74	7.969131e-07
121	0x375db1ef	1.3214055e-05
122	0x0231f334	1.3073702e-37
123	0x81c1ec14	-7.123576e-38
124	0x82603257	-1.6471368e-37
125	0xb6ec5312	-7.0430187e-06
126	0x00a99bf0	1.5576139e-38
127	0x806e77d0	-1.0144885e-38
128	0xb6da2918	-6.50169e-06
129	0x01b9fb8c	6.831922e-38
130	0xb6778938	-3.688574e-06
131	0x01e56f34	8.4280883e-38
132	0x00ac84d0	1.584335e-38
133	0x820a131a	-1.0144121e-37
134	0x36a2759e	4.8416687e-06
135	0x823e0153	-1.3959375e-37
136	0x821d0668	-1.1536377e-37
137	0x8158e920	-3.9840193e-38
138	0x022f22e1	1.2866979e-37
139	0x01226d38	2.983306e-38
140	0xb5c94e58	-1.4998468e-06
141	0x81978acc	-5.5667803e-38
142	0x362ec4a8	2.604249e-06
143	0x8128e6c0	-3.1022282e-38
144	0xb5c30e7a	-1.4532845e-06
145	0xb6440254	-2.920763e-06
146	0x36ee724c	7.1062586e-06
147	0x36570c3c	3.2044618e-06
148	0x36026efe	1.9436116e-06
149	0x01a81c0e	6.175371e-38
150	0x3846ae99	4.7369485e-05
151	0x368b958e	4.1599333e-06
152	0x02028d2d	9.591407e-38
153	0x37051f02	7.934637e-06
154	0x020ebc29	1.0486512e-37
155	0x8001da08	-1.7005e-40
156	0x80064f90	-5.79555e-40
157	0x821656af	-1.1045137e-37
158	0x36b1cbfa	5.298757e-06
159	0x01516c7c	3.846507e-38
160	0xb7066a98	-8.011841e-06
161	0xb6c6e256	-5.927209e-06
162	0x00cffd78	1.9100875e-38
163	0xb576ff60	-9.201376e-07
164	0xb7ab31bc	-2.0407948e-05
165	0x36f4b02a	7.292275e-06
166	0x36861179	3.9955453e-06
167	0xb632ace0	-2.6624693e-06
168	0x009581c8	1.3730046e-38
169	0xb60f33a3	-2.1338717e-06
170	0x821b9746	-1.1431015e-37
171	0x0218a7ab	1.1215315e-37
172	0x375c4b30	1.3130528e-05
173	0xb68e5bf8	-4.2426364e-06
174	0xb629f904	-2.5327909e-06
175	0x3681e54a	3.8711923e-06
176	0x026f19de	1.756637e-37
177	0x0209c7a6	1.0122467e-37
178	0x8006270e	-5.65023e-40
179	0xb55cb080	-8.221323e-07
180	0x0209710c	1.0097613e-37
181	0x36d3631c	6.299828e-06
182	0x80b32b88	-1.645417e-38
183	0x82080d91	-9.995595e-38
184	0x81c63536	-7.2810067e-38
185	0x37598ea6	1.2967421e-05
186	0xb6f7a090	-7.3798656e-06
187	0x825b01dc	-1.6090113e-37
188	0x8209d31d	-1.0125757e-37
189	0x380e941d	3.399338e-05
190	0xb7aa13dc	-2.0274827e-05
191	0x36e50506	6.8253166e-06
192	0x3726e804	9.948391e-06
193	0x01c7b320	7.3358087e-38
194	0xb6cb4c72	-6.058771e-06
195	0x37882270	1.62285e-05
196	0x026004e2	1.6458322e-37
197	0x820d1ea4	-1.0367837e-37
198	0x8207619f	-9.94625e-38
199	0x820e15b5	-1.0438742e-37
200	0x37497112	1.200686e-05
201	0xb6f64cf4	-7.34033e-06
202	0x8001d2f0	-1.67506e-40
203	0x379af5e1	1.8472727e-05
204	0x80812d20	-1.1862967e-38
205	0x823de7c1	-1.3952037e-37
206	0x3579a1f8	9.2995424e-07
207	0x80b06308	-1.6198573e-38
208	0x80f1aba8	-2.2193933e-38
209	0xb6ec3892	-7.0399337e-06
210	0x01febe10	9.357759e-38
211	0xb7ac5f06	-2.0548247e-05
212	0x01bb21b5	6.874132e-38
213	0x372e965e	1.0406218e-05
214	0xb6871517	-4.0257687e-06
215	0x35214d57	6.008972e-07
216	0xb702cf75	-7.796906e-06
217	0xb75a9c96	-1.3030271e-05
218	0x37874477	1.6125136e-05
219	0x8168f698	-4.2788593e-38
220	0x01e24040	8.311148e-38
221	0xb2dc88b8	-2.5673543e-08
222	0x01fce714	9.290176e-38
223	0x020ea237	1.0479066e-37
224	0x0203139c	9.629988e-38
225	0x81e8d738	-8.5532164e-38
226	0xb89ef0be	-7.578869e-05
227	0xb6778ede	-3.6889028e-06
228	0x80078aef	-6.92688e-40
229	0x37c74598	2.3755056e-05
230	0x36e1414c	6.713124e-06
231	0xb765e20e	-1.3702096e-05
232	0xb76a982e	-1.3982919e-05
233	0x81d08146	-7.659263e-38
234	0x819130e4	-5.333474e-38
235	0x01c22c76	7.1328143e-38
236	0x022f7936	1.2891755e-37
237	0x81bd95c6	-6.964255e-38
238	0xb6958490	-4.4559783e-06
239	0x825054ac	-1.5305726e-37
240	0x81b773fa	-6.739e-38
241	0xb7129109	-8.736047e-06
242	0x020f55a7	1.0530562e-37
243	0xb7b0d0f6	-2.107814e-05
244	0xb79d1b62	-1.872861e-05
245	0x81e144c2	-8.275061e-38
246	0x000ca970	1.162809e-39
247	0x02074a42	9.939545e-38
248	0x0207bada	9.971857e-38
249	0x378e315c	1.6950704e-05
250	0x020e676a	1.0462191e-37
251	0x019fb79a	5.867083e-38
252	0x8217a949	-1.114231e-37
253	0xb687d56e	-4.04816e-06
254	0xb813d5cf	-3.5246656e-05
255	0xb576c7e0	-9.1933e-07

bn2.weight f4 [256]
0	0x3d9da2ca	0.07697065
1	0x3e51df3e	0.20495316
2	0x3dcaab0a	0.09895904
3	0x000dfca5	1.284493e-39
4	0x00071ffb	6.54321e-40
5	0x3dc29bc8	0.09502369
6	0x800c6726	-1.139029e-39
7	0x3e0c63f2	0.13710001
8	0x3dfec848	0.12440544
9	0x001848d3	2.230176e-39
10	0x3dae47a1	0.08509756
11	0x0001ae02	1.54258e-40
12	0x8003e6f1	-3.58353e-40
13	0x3d84251e	0.06452392
14	0x38b51bd8	8.635939e-05
15	0x3e13a6c2	0.14419082
16	0x3cf03d92	0.029326234
17	0x36a7510e	4.986424e-06
18	0x800bf990	-1.099717e-39
19	0x3e46cac9	0.19413294
20	0x3d48481f	0.048896905
21	0x801fcaa9	-2.919601e-39
22	0x0010c08d	1.538442e-39
23	0x8022d9b9	-3.200511e-39
24	0x3d7b6b25	0.061381478
25	0x800694df	-6.04418e-40
26	0x000f7c1c	1.422054e-39
27	0x3db6d802	0.08927919
28	0x3d8e4b98	0.06948012
29	0x3e5fbb22	0.21848729
30	0x00029844	2.38294e-40
31	0x3dd03d70	0.10167968
32	0x3d3a52ca	0.04548911
33	0x3dfd3d5c	0.12365219
34	0x3e4ac784	0.19802672
35	0x800fb72a	-1.44324e-39
36	0x3dfcdd77	0.123469286
37	0x0006f8a9	6.40215e-40
38	0x3e00a98c	0.12564677
39	0x0019c120	2.365168e-39
40	0x001cf239	2.658287e-39
41	0x3db319ff	0.08745193
42	0x3e1ae11b	0.15124933
43	0x3d684993	0.05671079
44	0x3d9c7380	0.076392174
45	0x2419bab9	3.3334747e-17
46	0x000792ab	6.95463e-40
47	0x8006c128	-6.20304e-40
48	0x00050e22	4.64247e-40
49	0x00218c9e	3.081015e-39
50	0x3ddcbe1b	0.10778447
51	0x3d6176f9	0.0550451
52	0x0015ac40	1.990337e-39
53	0x3d7b4f13	0.061354708
54	0x3df9198b	0.12163075
55	0x0008b350	7.99009e-40
56	0x0003a91c	3.36172e-40
57	0x3e1ba9f2	0.15201548
58	0x000caa0f	1.163031e-39
59	0x3e739042	0.23785499
60	0x3d580c58	0.052746147
61	0x078fe5dd	2.165135e-34
62	0x3d81d33c	0.06339118
63	0x800c6e33	-1.141558e-39
64	0x3d87f1c8	0.06637913
65	0x3dd835cf	0.10557138
66	0x00254cec	3.425508e-39
67	0x0007723e	6.83831e-40
68	0x3e24b3c7	0.16084205
69	0x8000d3f8	-7.604e-41
70	0x0008cd6a	8.08373e-40
71	0x3d9f3647	0.077740245
72	0x000dc7ca	1.265532e-39
73	0x3d9f8b67	0.07790261
74	0x3d80d9a0	0.06291509
75	0x3e19a152	0.15002945
76	0x800119c1	-1.01074e-40
77	0x3dbf64b2	0.09345378
78	0x3dd4f2d5	0.10397879
79	0x000f41d4	1.401147e-39
80	0x3cb5f19d	0.022209937
81	0x26cb3c19	1.4102244e-15
82	0x3e08c2d5	0.13355573
83	0x0008ac09	7.96399e-40
84	0x3d545cd5	0.051846344
85	0x3e038cd4	0.1284669
86	0x3dacd9c0	0.0843997
87	0x3d2c6c64	0.042095557
88	0x3df776eb	0.12083229
89	0x3e21da7a	0.15805998
90	0x3e00bd2f	0.12572168
91	0x3e717b7c	0.23582262
92	0x0073ffc4	1.0652833e-38
93	0x3e3e8526	0.1860548
94	0x3ddf3f86	0.10900788
95	0x000fcb1d	1.450396e-39
96	0x000a5757	9.49687e-40
97	0x3d5eb833	0.054374885
98	0x00012e4f	1.08448e-40
99	0x3d798b2c	0.06092374
100	0x000585b1	5.07137e-40
101	0x00091ad3	8.36142e-40
102	0x3da0fe95	0.07861058
103	0x000f1cfe	1.387933e-39
104	0x0008036f	7.35916e-40
105	0x80002afe	-1.5423e-41
106	0x3dfeb9ff	0.1243782
107	0x3d3b534c	0.045733735
108	0x3dbead1b	0.09310361
109	0x00079722	6.97065e-40
110	0x00081d08	7.45098e-40
111	0x000af8bc	1.007584e-39
112	0x0009ee7f	9.12076e-40
113	0x00065144	5.80166e-40
114	0x3ddfa5db	0.10920306
115	0x3e161da6	0.14659747
116	0x800a34c8	-9.3729e-40
117	0x0a1f21cc	7.661928e-33
118	0x3e5016ff	0.20321272
119	0x3d65f7b8	0.056144446
120	0x3df0d164	0.11758688
121	0x3dbc21c8	0.09186131
122	0x0fd4d500	2.0986859e-29
123	0x000dbec3	1.262294e-39
124	0x80040458	-3.689e-40
125	0x3d9539d6	0.07286422
126	0x80002ba7	-1.566e-41
127	0x00152242	1.940835e-39
128	0x3da45f9e	0.0802605
129	0x80013dfa	-1.14068e-40
130	0x3d8371ea	0.06418212
131	0x00051d6a	4.69729e-40
132	0x80060754	-5.53642e-40
133	0x8008072e	-7.3726e-40
134	0x3d5d95a6	0.054097794
135	0x800e9686	-1.339695e-39
136	0x000c5078	1.130893e-39
137	0x00024600	2.08782e-40
138	0x80134ed0	-1.773147e-39
139	0x0005ec5f	5.43971e-40
140	0x3d9f01d7	0.07764023
141	0x0006cbd0	6.24127e-40
142	0x3df63e9f	0.12023663
143	0x0013dfd4	1.825169e-39
144	0x3e036147	0.12830077
145	0x3cbd9e2c	0.023146711
146	0x3daad982	0.083422676
147	0x3dbddbd8	0.092704475
148	0x3d31c62a	0.043401875
149	0x1fd343e0	8.9474266e-20
150	0x3dff9f64	0.12481573
151	0x3dc1d47f	0.094643585
152	0x800996e5	-8.8065e-40
153	0x3da06772	0.07832231
154	0x0007482a	6.68736e-40
155	0x00056c92	4.98125e-40
156	0x800ec346	-1.355748e-39
157	0x8014917e	-1.888903e-39
158	0x3dc3058e	0.09522544
159	0x0012dcba	1.732221e-39
160	0x3d6e7c02	0.05822373
161	0x3d28ba12	0.041193075
162	0x800ebb11	-1.352804e-39
163	0x3dc1e164	0.09466818
164	0x3d0d6599	0.03452072
165	0x3e67483d	0.2258615
166	0x3d8b7caa	0.06810887
167	0x3d87dcbc	0.066338986
168	0x000cdca9	1.181184e-39
169	0x3ca1ebd7	0.019765778
170	0xa6fd47a3	-1.7574819e-15
171	0x800b3c03	-1.031719e-39
172	0x3d712dc0	0.05888152
173	0x3d8800ce	0.066407785
174	0x3daf63d9	0.08563966
175	0x3d774ca3	0.06037582
176	0x0016bc75	2.087987e-39
177	0x000759db	6.75083e-40
178	0x000859b0	7.66858e-40
179	0x3dacc94d	0.084368326
180	0x000e156d	1.293383e-39
181	0x3d498537	0.04919931
182	0x8001cac6	-1.64577e-40
183	0x000770f2	6.83366e-40
184	0x0008542b	7.64878e-40
185	0x3d38d426	0.045124196
186	0x3d68210a	0.056672134
187	0x001bd81f	2.557088e-39
188	0x000df00b	1.279973e-39
189	0x3dd18f36	0.102323934
190	0x3e0fd899	0.14047469
191	0x3db2a83b	0.08723494
192	0x3de38c6d	0.111107685
193	0x0e216d6f	1.9897473e-30
194	0x3e09f5e7	0.1347271
195	0x3d545f39	0.051848624
196	0x05e7a57e	2.1783928e-35
197	0x800b40ce	-1.033438e-39
198	0x802a0ac1	-3.860949e-39
199	0x00016e7f	1.31474e-40
200	0x3db1f8e2	0.08690049
201	0x3dba48b5	0.09095899
202	0x800a7543	-9.6042e-40
203	0x3e0b7019	0.1361698
204	0x0015d42a	2.004656e-39
205	0x002a3d15	3.879003e-39
206	0x3d349cdd	0.04409491
207	0x000a5c12	9.51384e-40
208	0x271e4647	2.1965002e-15
209	0x3db6e3ff	0.089302056
210	0x8009da18	-9.04757e-40
211	0x3dac30da	0.08407755
212	0x000178a7	1.35117e-40
213	0x3df3ac58	0.11898106
214	0x3cba1979	0.022717224
215	0x3dc7b90b	0.09752091
216	0x3d1e3729	0.038626824
217	0x3da3bf02	0.07995416
218	0x3dd38589	0.10328204
219	0x0001ddae	1.71359e-40
220	0x0006061e	5.53207e-40
221	0xb9ce2ede	-0.000393263
222	0x22f7a3dd	6.712298e-18
223	0x80238bfb	-3.264458e-39
224	0x00003db3	2.2134e-41
225	0x000cfe3d	1.19323e-39
226	0x3df7f5f9	0.121074624
227	0x3da67ff3	0.08129873
228	0x00132ec4	1.761651e-39
229	0x3deb7249	0.114964075
230	0x3d9357bd	0.07194469
231	0x3db14b61	0.086569555
232	0x3e03c697	0.12868725
233	0x00011ab0	1.01409e-40
234	0x2f16b3f3	1.3706351e-10
235	0x2f844c3a	2.4064822e-10
236	0x000f0f11	1.382937e-39
237	0x0007959d	6.9652e-40
238	0x3dcbd68f	0.09953033
239	0x00065e91	5.84937e-40
240	0x000f1c92	1.387782e-39
241	0x3d3d6e24	0.046247616
242	0x8015ebbe	-2.013114e-39
243	0x3d888010	0.06665051
244	0x3dbbf9ee	0.0917853
245	0x000a5308	9.48141e-40
246	0x0023c433	3.284625e-39
247	0x800df88c	-1.283023e-39
248	0x000e9b1b	1.341338e-39
249	0x3dfcf75f	0.1235187
250	0x0012c66c	1.724219e-39
251	0x80034b4d	-3.0252e-40
252	0x800d2627	-1.207548e-39
253	0x3d048c2b	0.032360237
254	0x3dcb6701	0.09931756
255	0x3ab7e0f0	0.0014028829
